train_result/model_weight.pkl (torch_old, 299929 bytes, 15 tensors)

encoder.Conv1.weight f4 [16, 1, 3, 3]
00000000: 4511 1a3e 3085 b23e 1715 393e 3872 cfbc
00000010: 75e1 5a3e 0fc9 7e3e e39b de3d 7c09 5abe
00000020: f97e af3e 81b1 9abd 5d11 4ebe 66cb 953e
00000030: 76e2 c63d 5873 0ebe 01f1 8ebe e5e5 733e
00000040: 4c7d c7be 4fb6 c33e d539 f23d ae6f 753d
00000050: 6cd3 a4be 494c 5a3e cea6 7b3d d743 723e
00000060: e839 b8be cbea 22bc 4aed dc3d 4195 9d3e
00000070: 9fe1 9e3d 4b0a ae3d 8503 56be e776 cc3e
00000080: 4f0d eabd 5b77 df3d 94f5 b13e aa8c 43be
00000090: 1ed8 ba3e fea1 523c 120a 06be 0c63 1c3e
000000a0: 299e 543e 2a25 07be bb97 483e 783f 423e
000000b0: 558c 37be 15f7 8d3e 739d a43e fc23 373e
000000c0: a32d 39be ecb1 123e dbdf a1bd ee13 30be
000000d0: 8532 b83e 188e 333e 6019 9e3d 6126 d6bd
000000e0: 2e7d 92bb 9f04 50bc a3d6 62be ed4d 2ebe
000000f0: a7f4 163e e1c1 ea3e 6228 53be b112 283e
00000100: adde 15be cf0a 4cbe 37de dbbd 2593 80bd
00000110: 9d45 26be cf4f b23d e9c6 c1be cade 36bc
00000120: 659f 2ebe 5760 253e 5bc0 4a3e 9684 753d
00000130: eca7 b33e f2b6 09be 9595 e2bd 97f3 493e
00000140: 0b75 953e 63d7 16be 3da5 883e 5453 b23e
00000150: 8898 863e 3cbb 7abd 3da5 46be 4c3f b4bc
00000160: db29 c03e a735 043e 895a cd3e 0f35 9c3e
00000170: e201 a13e 9104 63be 4fdf 853e 05a5 63be
00000180: 0ad5 d03d 5522 bf3e eced 99bd 7c35 a4bb
00000190: 1e8f 93be 44b3 c3be 8256 40bc 52be 923e
000001a0: 4eb0 aebe 95ce 153c 836c 853c 7327 dcbc
000001b0: 3f1e 2e3e 8765 9b3d d8ed 8b3e 50b0 86be
000001c0: 0a74 3f3e 6916 a6be 247d b83d ba2f d0bd
000001d0: 8f1a 25be 99dd 88be 1b7a 7dbe a112 49be
000001e0: 1e52 8dbe 5af7 c03e 5fe4 b73e 10d2 493e
000001f0: dbe3 7f3e 573e 78be eb30 6a3e e7df fdbd
00000200: 8547 283d f9c4 6b3e b2ca af3e f839 a23d
00000210: 0405 fb3d 617c 093e e8f4 38bd 9491 e6bd
00000220: 9e82 9f3e 6397 b63e a8f2 8c3e e418 a23e
00000230: b203 31be 1e0a aa3c 203e e5bd 2799 45bd
0.1504565 0.3486724 0.18074451 -0.025323018 0.21375068 0.24881385 0.10869577 -0.2129268
0.3427656 -0.075533874 -0.20123811 0.29256743 0.09711163 -0.13911188 -0.27918246 0.23818167
-0.3896278 0.38225028 0.11827437 0.05992096 -0.32192552 0.21318163 0.061438374 0.23658691
-0.3598168 -0.009943674 0.10787447 0.30777934 0.077578776 0.08498057 -0.2089978 0.39934465
-0.1142832 0.10911437 0.34757674 -0.19096628 0.3649301 0.012856005 -0.13089779 0.15272158
0.20763458 -0.1319777 0.1958913 0.18969524 -0.17924626 0.2772757 0.32151374 0.1788482
-0.18083815 0.14325684 -0.07904025 -0.17195103 0.35976043 0.17534673 0.07719684 -0.10456539
-0.004470489 -0.012696414 -0.2215219 -0.17021914 0.14741765 0.45851043 -0.20620874 0.1641338
-0.14635725 -0.19925998 -0.107357435 -0.062780656 -0.16237493 0.087066285 -0.3784707 -0.0111615155
-0.17052992 0.16150032 0.1979994 0.059940897 0.35089052 -0.13448694 -0.11063687 0.19721828
0.2919086 -0.14730601 0.26688567 0.348292 0.26288247 -0.061213717 -0.19398971 -0.022002839
0.37531933 0.12911092 0.40108135 0.3050923 0.3144675 -0.2216971 0.26146933 -0.22230919
0.10196884 0.3733088 -0.07516083 -0.0050112586 -0.28820127 -0.38222706 -0.011739375 0.28660828
-0.34118885 0.009143491 0.016287094 -0.02687428 0.17003725 0.07587724 0.27329898 -0.2630639
0.18696609 -0.32438973 0.09008244 -0.10165353 -0.16123413 -0.26731566 -0.24753611 -0.19636013
-0.27601713 0.37688714 0.3591642 0.19709039 0.24989264 -0.24242531 0.22870223 -0.123962216
0.04108383 0.23024358 0.34334332 0.07921213 0.12256816 0.13426353 -0.045155436 -0.112582356
0.3115434 0.35662374 0.27528882 0.31659615 -0.17286566 0.020756777 -0.1119349 -0.04824176

encoder.Conv1.bias f4 [16]
00000000: 835c ee3b 490b 0eba 3b09 54be c01b b13c
00000010: 34bf a13d 7b97 073d d3cf 2bba 5d45 713e
00000020: e7c6 76be 84e0 de3d 0bb1 243c 9f16 4dbb
00000030: 4585 bcba 2a2c 1f3b 3a74 3f3e 83df 1c3e
0.007274212 -0.0005418552 -0.20706646 0.021619678 0.07897797 0.033103447 -0.00065541005 0.23561616
-0.24099313 0.10882667 0.010051976 -0.0031294 -0.0014382979 0.0024287798 0.1869668 0.15319638

encoder.layers.DenseConv1.weight f4 [16, 16, 3, 3]
00000000: b1b8 4cbc 1c4e 2c3d 44de bbbd 021b c3bd
00000010: eae0 6abd 6975 90bd a319 d3bd 0741 a9bd
00000020: 2c2a 7d3b 0ba8 81bd 8f55 003c 8b66 41bc
00000030: aba4 8b3d 7b99 56bd dc08 ce3c 77de 0cbd
00000040: 8063 823d 8e21 553d 1a2e dd3d e732 3ebd
00000050: d8d7 f03b 2d3d a63d 3308 f33c 6210 c7bc
00000060: 0d56 593c 0634 b33d 26f3 c33d 2c95 9b3d
00000070: f273 dfbc 1285 89bc 9dc7 a6bd ce90 ff3b
00000080: 81af b1bd 8443 873d 2c52 df3b 2aa1 343c
00000090: 7851 94bc e3ce 9ebd eb0a 4d3d b2a2 9fbd
000000a0: d18e 9fbd b13c 51bd 2a03 aa3d e8f5 813d
000000b0: 860d a7bd f059 6bbd 7273 553d a243 18bd
000000c0: cdd5 30bc d28d 593d 9202 45bc d203 babb
000000d0: 5ddc b2bd 06ae 93bd 22b9 8b3d b69e 283b
000000e0: 6850 70bd f086 fdbc 8093 6a3d ed7b f9bc
000000f0: 43f9 4c3d e9a6 023d 0080 d93a 6e0e 373d
00000100: 1c84 533d 630f 8a3d 4223 383d f090 e23c
00000110: 4dff d13c e2a7 963c 5bc0 25bc 378c 82bd
00000120: f03e bcbc 275e b13d ce6f ae3d 73ff f9bc
00000130: 811f 4abd e1dc 863d 654c 833d a905 363d
00000140: 23b9 2c3d 6304 46bd 2946 6abc f649 23bb
00000150: f89f 4d3d 6b5e 0ebd 6a5e c8bc ddf2 c0bd
00000160: 5ab6 243d 2831 73bd 9351 313d b9a6 aa3c
00000170: e9ab 60bc cf23 e93c b463 36bd f3cc 163d
00000180: 9eb2 62bd 91e3 85bd df96 513d 65c7 593d
00000190: 7678 b0bc 07b3 c9bd 98a9 f33c 482e febb
000001a0: 2032 41bd 2c6e 603d a033 f8bc b850 033d
000001b0: f3d8 14bc e419 103d 844e 5c3d e38a fc3d
000001c0: 0ff5 513d a81e 2d3d c493 a03d 7b48 63bd
000001d0: b2ad b33d 3d39 06bd 31d6 983b b6e2 183d
000001e0: 414b fdbb d0b3 88bd 30b0 873d 2e05 153c
000001f0: 81ab 2d3d 6bb0 9e3d d93b 85bd 12bf 2f3d
00000200: 5e13 f1bc 2950 1c3d c864 25bc 830f c5bd
00000210: 9439 c43c 8649 78bd 4caf 153d c7a7 87bc
00000220: 63c6 1ebc be20 5c3d cc1e b43c 1451 6fbd
00000230: d8ab 493d 2889 3dbd de3a 913d 7a2b 713d
00000240: 2bee efbc 3ad4 cc3c e134 04bd 7e16 1cbd
00000250: 1996 3fbc 8bfa 503d 3352 943d 9725 a2bb
00000260: a902 07bc 1aee 8b3d 4a60 af3c 93e9 613c
00000270: 7e20 dbbb 716f a03d 1bb7 4bbd c777 f4bc
00000280: e73e 8a3d a5ce 073d 0e5c 5b3d 433c 5abc
00000290: 5930 bf3d 2c58 95bc 2f7e 6ebc 8235 5cbd
000002a0: 6770 46bb 7826 213d 2d72 5f3d 2d75 83bc
000002b0: 92a6 adbd b440 3f3d 1caf 1bbd 1283 f3bb
000002c0: 84e0 083d 863b cd3c a695 b8bc 22cd 8d3b
000002d0: 7508 803c 4fe1 8d3d 89c2 1e3c e5f8 aebc
000002e0: 2c98 a33d 2f2f 80bd 4d1f 12bd 8cb2 3c3d
000002f0: c135 42bc 07bf 41bd 56ad 1a3d 8fea 983d
00000300: 4221 0fbd 09fa 4dbd 38cd b4bc c4eb 08bd
00000310: 440f 903d f161 80bd b1c1 87bd 8f30 2d3b
00000320: 6c3f 5e3c 1bb1 123c aabf 333d d0ae cdbc
00000330: 1c6b 333d 5d41 41bd 479f 413c fa86 69bd
00000340: 76ce 5ebd 911d 80bc 3ea8 05bd 36a0 e7bc
00000350: 01a6 af3c 266a ac3d 4e90 5f3d dde7 793c
00000360: cd0c 5b3d 7b02 82bd 31d4 dfbc 1eba 83bd
00000370: e020 0d3d c980 7a3d 63c0 2bbd b535 413d
00000380: 6475 ee3b db40 523b b83d 5fbd 722f 803d
00000390: af14 a0bd 6895 8bbd ac19 95bd 9fb8 903d
000003a0: c48f 4abd b708 54bd f63d 2abd 1328 603d
000003b0: 2b8f 6d3d 12f2 743d 12dd 973d 6c16 48bd
000003c0: 2320 6a3d 3777 60bc ecaf 463d 4e3c c83d
000003d0: 0535 ba3d 4c5c a5bd a03b 033b 66b6 eb3c
000003e0: 94a9 3cbd a74b f83d e64c 4b3d aa57 3b3d
000003f0: feee 473c 513c 00be b0c7 b5bd 525d d0bc
-0.012495206 0.04206668 -0.09173253 -0.09526636 -0.0573434 -0.07053644 -0.10307624 -0.08264356
0.0038629873 -0.0633088 0.007832899 -0.011804233 0.06818517 -0.052392464 0.025150709 -0.034391847
0.06366634 0.052033953 0.10799809 -0.046435263 0.0073499493 0.08117137 0.029666996 -0.024299804
0.013265145 0.08750157 0.09567861 0.07596812 -0.027276967 -0.016787086 -0.08143542 0.0077992445
-0.08676053 0.066046745 0.0068152156 0.011024753 -0.018105254 -0.07754304 0.05005924 -0.077947035
-0.07790912 -0.05108327 0.08301385 0.06345731 -0.08156876 -0.057458818 0.05211205 -0.037173875
-0.010793162 0.053113766 -0.012024539 -0.005676725 -0.08733437 -0.07210927 0.06822421 0.0025729365
-0.05867043 -0.030948132 0.057269573 -0.0304546 0.050042402 0.03189746 0.0016593933 0.044691496
0.05163966 0.06741216 0.0449555 0.027657002 0.025634432 0.0183906 -0.010116662 -0.063744
-0.02297923 0.08660536 0.08517419 -0.030517315 -0.04934645 0.06585098 0.064110555 0.04443899
0.042168748 -0.048344027 -0.014298954 -0.002491591 0.050201386 -0.034758013 -0.024459083 -0.094213225
0.040212967 -0.05937305 0.043290686 0.020831453 -0.013712862 0.028459458 -0.044528678 0.03681655
-0.055346124 -0.065375455 0.051169273 0.053168673 -0.021541815 -0.098486 0.029743955 -0.007756982
-0.047166944 0.054792568 -0.030298054 0.0320594 -0.009084928 0.03518094 0.053785816 0.12331178
0.051259097 0.042265564 0.07840684 -0.055489045 0.08773364 -0.03276943 0.0046642055 0.037325583
-0.007729918 -0.066749215 0.06625402 0.009095473 0.042399887 0.07748493 -0.06505556 0.04290683
-0.02942818 0.038162384 -0.010094829 -0.09622099 0.023953237 -0.060616992 0.03654413 -0.016559495
-0.009690854 0.053742163 0.021987341 -0.05842693 0.04923615 -0.04627338 0.07091306 0.058879353
-0.029288372 0.025003541 -0.03227699 -0.038107388 -0.011693501 0.051020186 0.07242241 -0.0049483287
-0.00824038 0.06832524 0.021408219 0.013788599 -0.006687223 0.07833756 -0.04973517 -0.02984227
0.06750279 0.033156056 0.053554587 -0.013320032 0.093353935 -0.01823052 -0.014556452 -0.053761967
-0.00302794 0.039343327 0.054552246 -0.016047085 -0.084790364 0.046692565 -0.038008794 -0.0074313963
0.03341724 0.025052797 -0.022532295 0.0043274323 0.015629033 0.0692774 0.0096899355 -0.021358917
0.07988009 -0.062589996 -0.035674382 0.046068713 -0.011853636 -0.04730132 0.037762962 0.074666135
-0.034943826 -0.05028728 -0.022070512 -0.03342797 0.07034162 -0.06268681 -0.066287406 0.0026426648
0.013564926 0.008953358 0.043883957 -0.025107771 0.04380332 -0.047181476 0.01181776 -0.05701349
-0.054396115 -0.015639098 -0.03263115 -0.028274637 0.021441462 0.08418684 0.05458098 0.015253034
0.053479005 -0.06348129 -0.02732286 -0.064319834 0.03445518 0.061157975 -0.04193152 0.04717036
0.0072771776 0.0032082114 -0.05450222 0.062590495 -0.07816445 -0.06815606 -0.07280287 0.07066464
-0.04945351 -0.051766124 -0.041562997 0.054725718 0.057997864 0.05980117 0.07415213 -0.04884951
0.057159554 -0.013700298 0.048507616 0.09777127 0.09092144 -0.08074245 0.0020024553 0.028773498
-0.04606016 0.121238045 0.049633883 0.0457379 0.012202976 -0.12523009 -0.08875978 -0.025435124

encoder.layers.DenseConv1.bias f4 [16]
00000000: 302b 88bc 3315 0c3d 2e37 493d 948e e03c
00000010: 90e6 c0bc 3d0a 5fbc 33cc 64bd 42e7 093d
00000020: a408 f43c e569 52bd 380f 92bd 1c9b dabc
00000030: b808 20bc a19d e3bc 1d3d e93c d191 8ebc
-0.016622156 0.034199905 0.04912489 0.027411737 -0.02354744 -0.013613281 -0.055858802 0.03366781
0.029789276 -0.05137052 -0.07131809 -0.02668529 -0.009767704 -0.027785124 0.028471524 -0.017403515

encoder.layers.DenseConv2.weight f4 [16, 32, 3, 3]
00000000: 1727 543d e50f 34bd 5f3e 833d 70b3 92bc
00000010: 3bf4 2f3d 4ef8 25bc db78 d73c 8b8e 1f3c
00000020: 9f2a 8dbc 19c7 84bd 9525 0f3d b76f bd3d
00000030: b63d dd3c 0dde bb3d c298 943c 436a bdbc
00000040: 881f 68bb 45a2 223d 0ba3 40bd 24e3 8fbd
00000050: 39d3 31bd 742e 3ebd 68cf 06bd 50d4 233c
00000060: 870d 473d 8221 bdbd 3221 1bbd ccf2 c03b
00000070: 181b 583d 939a f3bc 1136 ae3c d852 623d
00000080: c367 85bd 663f 09bb ebe0 8f3b 15d5 263c
00000090: c0fe fbbc 5784 3cbd 9085 843d b303 cbbc
000000a0: 15c5 1dbd 38a5 58bd 2890 19bc 3ec1 283d
000000b0: 9018 0e3d 7509 1e3d 7b21 31bd 868d c6ba
000000c0: f36b 353d af0f 34bc 7083 0fbc 0abe 0dbd
000000d0: 1b04 ea3b 3764 4e3d 0c16 b0ba c85e 20bd
000000e0: 18e7 15bb 9542 e8ba 325e 323c 3223 693d
000000f0: c32c 8bbc 7605 83bc f424 f7bb 3c8a 553c
00000100: cb39 d13c 00a8 cfbc 8686 f0bc af08 20bd
00000110: c9f6 203d e27d 14bd b7da a53c 2467 f8bc
00000120: fcd5 46bb f17c c63c 5b1c 063d bae5 2abc
00000130: 2bd3 a0bd 2335 02bd ad78 103d 356e 06bb
00000140: af25 b1bc 23e7 e0bc a22d c639 9c00 5abc
00000150: ebf6 023d 99e2 dabc e8b4 dbbc 974d 323d
00000160: 4aa1 763c 6369 bd3b 799a fd3c 0d4a 11bc
00000170: 3705 4dbd b1e3 903c f81f f23c bba3 873c
00000180: 250e 1abd bd68 42bc 18db 723d 715f 8dbd
00000190: 9cb1 e1bc 2dc6 053d 818b c2bd e503 613c
000001a0: bd92 1b3c c089 d03c 01b9 e3bc e9c8 133d
000001b0: e09e 113c 9574 aabc ebdb 883c 2b96 9abc
000001c0: c52b 41bb 61ec e93b 0f4c 5d3d 0d3e 7dbd
000001d0: 3366 b0bd 39f7 1ebd e195 253d 6171 ff3c
000001e0: 9d42 06bd a4da 133d 6052 bc3d c14d ffbc
000001f0: cf00 53bc f29c 60bd ff16 d83b ba7a ee3c
00000200: 5106 b7b9 3480 4e3b dd52 43bd bb7a 9fbb
00000210: 1707 0cbd 3c6c 10bd dd55 b83c ae5f 223d
00000220: ef5e 603d cf40 4cba a531 54bc 0cd1 713d
00000230: 0bfa bf3c 522d 8e3d ad03 b43c 69ff 9a3c
00000240: 37a0 743b 309d c13b 3491 423d 115b 063d
00000250: e656 b33c 3c32 113d 06ab 3cbb dc93 703d
00000260: 0ae9 b13a 0607 b33c c400 72bd 8178 fa3a
00000270: 8aab 87bd d176 a53c fd16 b03c 4717 17bd
00000280: adb4 d23c 14f2 f5bc 1b21 4abd ed63 7abc
00000290: fb64 263d 39fa dd3c 810e fb3a 6930 3e3d
000002a0: 3ccb 27bd 1ace fd3c 881a 3dbd 703b 10bb
000002b0: aad0 253d 1a83 d3bc c583 33bd ad9b 593d
000002c0: 4af2 02bd 8556 b0bb e299 6b3a 7dbf 8d3d
000002d0: 9602 5dbd 685d 03bd cb26 003d fa18 19bc
000002e0: 55b0 1abc 4921 26bd dcd8 8bbc 30a4 323c
000002f0: 9367 f8bc 2110 953c b5ed 17bd 82d8 df3c
00000300: 7630 ccbc f821 823b 0791 203d 3f58 1a3b
00000310: 6c7b 1abc 9f87 2e3c 258f 25bd 09e4 dabc
00000320: f623 0d3d 2475 92bd b512 9b3c 7406 b23c
00000330: a307 37bd 46d4 1d3d 49aa 2abd 1b9e d63c
00000340: e017 253d e6da 043c 74a0 3abd f4e0 5cbd
00000350: b8f2 94bc 7882 e5bc 062b 94bb d44a 9a3a
00000360: ffc8 b1bc 5b85 4bbc bf86 753d 8a87 25bd
00000370: 4206 133d d89b ef3c 10ec a9bc 960d a6bb
00000380: e6b7 8bbc dfd7 943d 405c 4ebc e062 e23c
00000390: 473d 65bc 593d 85bc 2a01 88bc c7a2 66bb
000003a0: bd38 8e39 8cfd 143c a18a 25bd e915 d63a
000003b0: 216b 21bd 2560 0bbd 1652 e4bc 1651 d53c
000003c0: 82d0 f83b 47ed 0e3c f1e5 523d 31f9 69bd
000003d0: 5bd8 2d3d a9d6 d83c 4c9f 03bd 6205 803b
000003e0: 5794 40bd dc99 ad3c 5ded 2d3d 7715 77bc
000003f0: 86e0 243d cdc6 f03b 2d12 0d3d 6f76 a1bc
0.05179509 -0.04396047 0.06408381 -0.017907828 0.042957526 -0.010130001 0.026302746 0.009738575
-0.017232237 -0.06483287 0.03494795 0.092498235 0.027006965 0.09173212 0.018139247 -0.023121959
-0.0035419185 0.039705534 -0.04703049 -0.070257455 -0.04341433 -0.04643102 -0.03291264 0.00999935
0.048596885 -0.09234907 -0.037873454 0.0058883186 0.052760214 -0.029736793 0.021266015 0.055254787
-0.065139316 -0.002094233 0.004390826 0.010182639 -0.030761123 -0.046024647 0.064707875 -0.024782037
-0.03851803 -0.05289194 -0.009372748 0.041199915 0.034691393 0.038583238 -0.04324482 -0.0015148378
0.0442924 -0.010990067 -0.0087593645 -0.034605063 0.0071416027 0.05038854 -0.0013434305 -0.03915289
-0.0022873338 -0.0017720038 0.010886716 0.05691833 -0.016989117 -0.015993815 -0.007542247 0.013033446
0.025540253 -0.025348663 -0.02936102 -0.03907078 0.039297853 -0.036252864 0.020245893 -0.030322619
-0.0030339947 0.024229499 0.032741886 -0.010430748 -0.07852777 -0.031788956 0.035271335 -0.0020512466
-0.021624414 -0.027453965 0.00037799502 -0.013305809 0.03197376 -0.026719378 -0.026819661 0.043531027
0.015053103 0.0057803853 0.030957447 -0.008867753 -0.0500538 0.017686697 0.02955626 0.016557565
-0.037611146 -0.011865792 0.059290975 -0.0690297 -0.027550511 0.0326597 -0.094992645 0.013733839
0.009495434 0.02545631 -0.027798178 0.036080275 0.008887976 -0.020807544 0.016706428 -0.018870434
-0.0029475552 0.0071387743 0.054027613 -0.061826754 -0.08613243 -0.03880999 0.04042614 0.031181993
-0.03277837 0.036097184 0.09195399 -0.031165006 -0.012878611 -0.054837175 0.006594538 0.029111255
-0.00034909186 0.003150952 -0.047686446 -0.0048669255 -0.03418645 -0.03525947 0.02250188 0.03964203
0.054778036 -0.00077916397 -0.012951289 0.059037253 0.02343466 0.06942238 0.021974409 0.018920617
0.003732694 0.005908631 0.047501758 0.03280169 0.021892022 0.035448298 -0.0028788461 0.05873476
0.0013573479 0.021853935 -0.05908276 0.0019109399 -0.06624515 0.020198258 0.021495337 -0.036887433
0.025720919 -0.030022658 -0.049347978 -0.015282613 0.040623646 0.027096855 0.0019154103 0.046432886
-0.040965304 0.030982066 -0.04616788 -0.0022008084 0.0404822 -0.02581935 -0.043826837 0.05312698
-0.031969346 -0.0053814077 0.0008987469 0.06921289 -0.053957544 -0.0320715 0.031286996 -0.009344334
-0.009441455 -0.040559087 -0.01707118 0.010903403 -0.030322826 0.018196167 -0.03709193 0.027324919
-0.024925452 0.0039713345 0.03920081 0.0023551134 -0.00942884 0.010652452 -0.040419716 -0.026720064
0.034458123 -0.07151249 0.018929819 0.021731593 -0.044685017 0.038532518 -0.041666303 0.026198437
0.040305972 0.00810883 -0.045563176 -0.05392547 -0.018182144 -0.028016314 -0.0045217304 0.0011771568
-0.021702288 -0.012421931 0.059942957 -0.040412463 0.03589464 0.029249117 -0.020742446 -0.0050675375
-0.017055463 0.07267737 -0.012595236 0.027635038 -0.01399166 -0.016264604 -0.016602118 -0.0035192238
0.00027126624 0.009093653 -0.04041541 0.0016333434 -0.039408807 -0.034027237 -0.027871173 0.026039641
0.0075932154 0.0087235635 0.05148882 -0.057122413 0.04244266 0.026469545 -0.03213434 0.0039068917
-0.047016468 0.02119153 0.042462695 -0.015080801 0.040253185 0.0073479176 0.034441162 -0.019709794

encoder.layers.DenseConv2.bias f4 [16]
00000000: 8d02 7dbc 3c6c e63c 3bda 6f3c ad1e f63c
00000010: e123 dfbc 8795 393d ff62 7cbc 52d2 293d
00000020: 1931 9fbc f333 e43c c60b f9bc 6946 fdbb
00000030: 2f43 3d3c 1fb8 0a3d 0798 debb a986 003d
-0.015442503 0.028127782 0.014639433 0.030043924 -0.027238788 0.045308616 -0.015404462 0.041460343
-0.019432591 0.027856803 -0.030401122 -0.007729341 0.011551662 0.033866998 -0.0067930254 0.031378422

encoder.layers.DenseConv3.weight f4 [16, 48, 3, 3]
00000000: f3e6 96bd d892 b93d e3f9 3dbc 2542 963c
00000010: 0dde 00bd 87f7 abbc 5bef cd3c 4ee6 023d
00000020: 3db7 0f3c 3c72 76bd 09b6 d0ba 7ac0 8abd
00000030: ac4c adbc aec9 2fbe 9387 9bbd 21aa 85bd
00000040: bd03 a1bc cde8 173c 1b57 da3b a529 853c
00000050: 6b17 2e3d 46b5 1f37 cfd1 d63c 8c42 2a3d
00000060: 9af8 fdbc 57b6 333b 010a 08ba bd4b 613d
00000070: 4c3d 78bd 4f62 d6bc 9309 e43c 5049 efbc
00000080: 5b69 6f3c 9ade 19bd 8594 fe3c 0bad 843d
00000090: 3c44 9d3b 000a 4abd 186d 1dbd 878e 1a3d
000000a0: 5b9b 0fbd 4117 953c 9b31 863c 2d65 9a3c
000000b0: 71b3 a4bc ea89 3bbd 5d7d 5bbc af63 dc3c
000000c0: 9b75 173d beaa 5e3d a33c 1b3d 329a 043d
000000d0: 2e23 b9bc 2fe2 4cbc b95a 84bc 4ad7 f3bd
000000e0: ba1c 013b 2b52 803c 125f d8bd 2d88 1dbe
000000f0: 2481 a83d 899c 94bd d752 8bbd a87a 923a
00000100: 3537 243d ff14 b93c a5cb e9bc b632 f5bc
00000110: 0de5 353d b0cf 053d 0521 303c 89c4 0ebd
00000120: 8375 ebb9 a425 77bd 1ec9 69bd 31d2 ccbb
00000130: 10f3 ac3b b77f 06bd 35f7 a8bc df2f bcbc
00000140: f9bc 2bbd 558c 073d cd54 e8bc 4412 7b3b
00000150: 61fe 8d3d 2bd8 913d 73b2 6d3b 39ef 35bc
00000160: 28ed 1ebc f8ff 7c3d f833 edbc d8d2 8b3c
00000170: 89ce 49bd ae92 b83b 08d7 35bb ede5 4f3d
00000180: 8c1d 1abd 6ffe 583d 0d14 bbbc d576 863d
00000190: 3c42 9bbd 4114 223c 7cb4 903d 242c 8dbd
000001a0: d14f 3fbc 3721 443a ec0d d3bd 15a6 583d
000001b0: 45bd 033d 531d 7dbb e92b 173c 5f11 0fbd
000001c0: 2dd5 98bd ecc9 513c fc96 163d b67d 23bd
000001d0: 7f37 8abd cebb 91bd 8787 2cbd 10f7 4ebd
000001e0: 8bcc 08bd 3679 c7bd 36b3 04be 62d6 26be
000001f0: f44d f7bd a36f b1bd d0da 1fbd 7a35 fa3a
00000200: 43a2 10bd 0030 2cbd bde8 9ab9 055e 31bc
00000210: 97bf ecbc eff8 8e3d 2ed6 2fbc c276 47bd
00000220: 795f e33b ec18 3e3c de0c a4bc 5d92 86bd
00000230: 4984 d83c 251c acbc 7c85 da3c 73f7 21bb
00000240: 3c17 ce3c d6e1 393d 867e 88bc 136d e13c
00000250: 4d6d b03c a9f2 dcbc 68b1 80bd 58ed e23c
00000260: 3f58 ec3b c433 733c e0c8 7f3d 0134 9f3d
00000270: 3a33 413c 0fdd f3bb 39a0 a739 d500 3e3d
00000280: bbdf 03bd a228 d63c 3f27 93ba 2668 c93d
00000290: c455 113d 5920 13bd 12fb f8ba 7c8b 9abc
000002a0: c1cb 9e3c 1237 a23b 03f5 febb ff31 7e3d
000002b0: 6b7f f93c caf3 94bc 78bd 953c 2e50 2c3d
000002c0: da84 1abc 9694 92bc 5c75 09bd a2a8 0fbd
000002d0: bc2e 35bd 6c4b 7abd d672 bcbd b664 51bd
000002e0: 8dad f4bc fff2 0d3d 4e1a 82bd ee99 61bd
000002f0: 3f0c 353c 73fb 94bc 4df8 3ebd e113 00bd
00000300: 0887 173d 10ad 7f3c 4c72 32bd 6f8d 043d
00000310: 3a26 6cbd c36c 823c a16e 193d f999 01bd
00000320: 8ed6 433c c326 ef3c 60f0 8b3d eb6b 4ebd
00000330: 9486 5abc b806 6bbd 85b5 773c bd69 8b3d
00000340: 1727 e3bb b1b5 2bbd 0eab d13b ceb8 893d
00000350: 364f ec3d 6591 333c 2d6a 143b afa4 15bd
00000360: c527 e3bb 0abe e73c 97f9 833c 7c7e 44bb
00000370: 839e dfbc 6c26 6abc 97c4 913b 0ae8 c63d
00000380: c1e5 08bd 9d42 28bd d651 8abc 715a 63bd
00000390: 2825 4f3d 6d7d 243c f2b6 be3c 0a15 533c
000003a0: 2437 9b3c 37d4 2abd 1bbc f33c 3c89 e9bb
000003b0: fd89 113d 2c1c aa3c c70f 7bbc 8733 853c
000003c0: d7c3 533b edc1 023d 6133 90bc eee9 ffbc
000003d0: 3098 0a3d 9c4a a4bd 5b5b 063d b914 2f3d
000003e0: 2b14 283c 1cdd 16bd 36ff 13bd 2b11 fbbc
000003f0: 2c8f 31bd 190d 233d 6d06 c4ba a6f6 763a
-0.07368269 0.09061211 -0.011595222 0.018342087 -0.031461764 -0.020992054 0.025138548 0.031957917
0.008771715 -0.060167536 -0.0015923391 -0.06774993 -0.021154724 -0.17166778 -0.07594218 -0.0652659
-0.019655103 0.009271813 0.006663216 0.01625521 0.042502802 9.5193445e-06 0.026223091 0.04156737
-0.031002332 0.0027421915 -0.0005189479 0.05500387 -0.060605332 -0.026169924 0.027836597 -0.029209763
0.014612521 -0.037565805 0.031076679 0.06478318 0.004799394 -0.049325943 -0.038434118 0.03773358
-0.035060268 0.018199565 0.016381076 0.018847072 -0.020105096 -0.045785822 -0.013396588 0.026903002
0.03697739 0.05436205 0.037899625 0.032373615 -0.022599783 -0.012505098 -0.016156541 -0.119062975
0.001970096 0.01566418 -0.10565008 -0.15383978 0.082277566 -0.07256419 -0.0680291 0.001117547
0.040091712 0.02259302 -0.028539488 -0.029931407 0.044407893 0.03266877 0.01075006 -0.0348554
-0.00044910246 -0.06033863 -0.057076566 -0.0062506427 0.0052779987 -0.032836642 -0.02062569 -0.022972045
-0.041928265 0.033092815 -0.028360749 0.0038310448 0.069332846 0.07121309 0.0036269694 -0.011104398
-0.009700097 0.06176755 -0.028955445 0.017068312 -0.049269233 0.00563272 -0.0027746577 0.050756384
-0.037625834 0.05297702 -0.02283671 0.06565634 -0.075809926 0.009892524 0.07065675 -0.06893185
-0.011676745 0.0007481756 -0.1030539 0.052892763 0.032162923 -0.0038622215 0.009226778 -0.034928676
-0.07462535 0.01280449 0.036765084 -0.03991481 -0.06748866 -0.07115899 -0.042121436 -0.050528586
-0.033398192 -0.09739916 -0.12958989 -0.16292718 -0.12075415 -0.08663871 -0.039027035 0.0019089424
-0.035310995 -0.042037964 -0.00029546572 -0.010825639 -0.02889995 0.06981074 -0.010732217 -0.04869724
0.0069388715 0.0116026215 -0.020025667 -0.06570885 0.026430266 -0.021009514 0.026674978 -0.0024714142
0.025157563 0.04538139 -0.016661894 0.027517831 0.021536494 -0.026971178 -0.062838376 0.027701065
0.007212668 0.014843885 0.06244743 0.07773591 0.0117919985 -0.0074421237 0.00031972097 0.046387512
-0.032195788 0.026142422 -0.0011226906 0.09834318 0.035482183 -0.03591952 -0.0018995723 -0.01886534
0.019384267 0.0049504125 -0.0077806725 0.0620594 0.030456265 -0.018182654 0.018278822 0.042068653
-0.009431088 -0.017893117 -0.03355919 -0.03507293 -0.044234022 -0.061107084 -0.09201591 -0.051121436
-0.029867912 0.034655567 -0.063526735 -0.05507844 0.011050283 -0.018186307 -0.046623517 -0.031268958
0.03699401 0.015605226 -0.043566033 0.032361444 -0.057653643 0.015921002 0.03745902 -0.03164098
0.011953009 0.029193288 0.06832957 -0.050395887 -0.01333775 -0.057379454 0.015118961 0.06807277
-0.00693215 -0.04192132 0.006398565 0.06724702 0.11538546 0.010959958 0.0022646294 -0.036534008
-0.006932231 0.02828886 0.016110225 -0.0029982617 -0.027297264 -0.014291387 0.004448484 0.09712227
-0.033422235 -0.041079152 -0.016884726 -0.055506174 0.050572544 0.010039669 0.023280594 0.012883434
0.018947192 -0.04170629 0.029752782 -0.0071269553 0.035531987 0.020765387 -0.015323586 0.016259922
0.0032312775 0.031923223 -0.017602624 -0.031239476 0.033836544 -0.08022043 0.032801967 0.042744372
0.010258715 -0.03683196 -0.03613206 -0.030647835 -0.04334943 0.039807413 -0.0014955528 0.0009420909

encoder.layers.DenseConv3.bias f4 [16]
00000000: dc3b 97bb 6ff0 ad3c deac 41bc da19 1ebd
00000010: 26ec d23c 4030 c6ba 603e 93bc 6041 663c
00000020: 70b6 89bc b3d5 a4bc fd34 743a a436 a73c
00000030: d18e aa3c 09a3 46bd 152e fdbc 16c4 f5bc
-0.00461529 0.021232812 -0.011821 -0.038598873 0.02574737 -0.0015120581 -0.017974079 0.014053673
-0.016810626 -0.020121431 0.0009315757 0.020411797 0.020820053 -0.048495326 -0.030905763 -0.030000728

decoder.layers.Conv2.weight f4 [64, 64, 3, 3]
00000000: e0b8 b7bd 0925 803c b57a fbbb 0a4a 84bd
00000010: 4f96 69bb 13e3 5a3c 0248 b1bd 85c6 f2bc
00000020: 22ef 2a3d 0eb3 91bd f055 663d 1f8c ec3c
00000030: 028b 1ebd 0937 45bc 07f0 333c 05e1 d8bc
00000040: 6f07 84bc a34f c43a a807 b4bb dec4 853b
00000050: e51b 03bc c562 253d 4a49 443d 9908 62bc
00000060: 8e75 37bc 1d2c 893c e0c2 243d 98b3 afbc
00000070: d076 763c b1f5 7c3c ad1f f53c 2aee 963c
00000080: a1d9 003d 6d5e 29bc fb4c 8b3c ef31 073d
00000090: c813 51bc 46b5 34bb 9053 7a3c ac58 db3c
000000a0: 7af2 e9bc 6679 f0b9 dbef 23bc 7272 f0bc
000000b0: a4c1 be3b 6fab ebbc 028b 55ba 0638 66bd
000000c0: 57e9 15bd bfc4 903c 674d ff3c d1be 1fbd
000000d0: 00d9 1b3d d759 213d df3a 063c 8cd0 373d
000000e0: cf12 4c3d 6de0 b13a 60ba 363c 2462 153d
000000f0: 10bb 873c 2879 e2bc e362 8c3c a6bc e3bc
00000100: b0d4 8fba aa52 5f3c 786e 29bc 7229 34bc
00000110: 1c81 033d 5d22 813c 4876 b53b 73d1 cb3c
00000120: ebc4 273d 2583 c1bc a9b8 0dbd ce13 92bb
00000130: 9876 283b df57 6dbd 8f31 7d3c 0cef debb
00000140: dd17 50bd 27c1 8abd 202e 3c3c 13c6 0abd
00000150: 0032 94bb bd30 1b3d 3810 36bc f17d f6bc
00000160: 0caf ec3c 6c50 f3bc e91b 2fbd d4bd 473c
00000170: d6e6 9ebc 834c fe3b 32ee de3c f5ed 993b
00000180: 857c b2bc d966 e93c bdca ca3b 9f9f 613d
00000190: a33a cf3c b32d 4bbd 4ffa f83c 047b abbb
000001a0: 45bc 853d 9cce 5abc 2d51 d23c 0fa9 92bb
000001b0: 6e1c 11bd 999f a53d 22e5 c83c 70a3 c2bc
000001c0: f073 cc3d 1bc9 903d c271 9ebc da08 023b
000001d0: 922a 223d c158 7d3c c7c2 b1bc 8811 7cbd
000001e0: b938 02bd 20dd 183d b128 553c fc6e 2c3b
000001f0: 1d94 8aba d8d3 78bb 2a4b fabc 50f1 f1bc
00000200: 1aba e3bb 5901 93bc 4270 e43c a7da 103c
00000210: 04ac 4cbd 6c78 40bc 1cb6 bcbc 5cb5 37bd
00000220: 4984 e2bc 98bc efbc ce44 93bc 6490 6c3c
00000230: b334 b1bc b5ee 51bd 71d0 96bc 6858 bdbc
00000240: d417 843d 15fb cb3b 4c97 08bc c724 1a3d
00000250: 67b5 b33c 4b3e 3abd 6b68 693d 5f5e a13c
00000260: 4abe 51bc 8ab1 ab3c 44ec f3ba 9e82 18bb
00000270: 744a a3bc cb37 53bb 1a40 c3ba 0e4a 62bb
00000280: cf6c b73c 9cea bfba 70cf 9fbc 1003 133d
00000290: b427 f2bc aa6c 02bd 91e1 d2bc fc62 223d
000002a0: 9602 903c 2781 20bc 7f9d 413d f971 e9ba
000002b0: e217 b8bc 472c 82ba 08e2 c1bd 4e12 6e3d
000002c0: 1080 8439 0063 80bd 31ad 853c dc6a 9abb
000002d0: 61f4 9a3c 7012 683b 2b34 5f3c 81b1 513d
000002e0: c21e 76bc fc8a 0b3d 1e18 093d 7628 bebc
000002f0: ee20 04bc e626 413d b1e7 2bbd 27d6 b03d
00000300: 0fa6 673d 2f35 8dbc 8398 d73c cc96 573d
00000310: 1659 1f3d 3f16 11bb 8c7b 05bd 4caf 133d
00000320: 8251 e9bb c12f 88bd 5cde 973b 6774 353d
00000330: ef7d adbc 8805 9b3d 5a56 913c d05f a0bc
00000340: da29 61bd 7405 ee3c cb93 bb3b b6cc ff3b
00000350: de57 b43c 64c7 9939 c841 bebc 2a42 883b
00000360: 2929 573c 0f5a a3ba f276 70bc 5930 883c
00000370: e476 c8bb 1b30 a23c fdab 52bc 3c13 1dbc
00000380: 9095 4b3d f3c8 be3d f109 bcbc 0d2b fdbc
00000390: 35a6 803d 3810 b33b 5277 4b3d 115d 91bc
000003a0: e4f5 38bd a404 cab9 d01e 813c 5d03 69bc
000003b0: f831 093d 57d8 963d d21b 9ebc b973 9d3b
000003c0: ba5b 253d 59cd d0bc d2fe d0bb 7f03 9bbd
000003d0: f02f 7bbd d1f9 72bd 0852 88bd 7baa 02bd
000003e0: c3f0 85bd 1b4e 1fbd 5144 193d ee95 c5b9
000003f0: 291a 8bbd 6298 26bc a3f1 4dbd cc0c 493c
-0.08970809 0.01564266 -0.00767454 -0.06459434 -0.003564257 0.013359803 -0.086563125 -0.029635677
0.04173196 -0.0711423 0.0562343 0.028875409 -0.038706787 -0.012037047 0.01098252 -0.026474485
-0.016116826 0.0014977347 -0.0054940768 0.0040823063 -0.008002256 0.040377397 0.047921456 -0.013795995
-0.011197461 0.016744668 0.04022491 -0.021447942 0.015042976 0.015439437 0.02992233 0.018424112
0.031457547 -0.010337454 0.01700448 0.033006605 -0.012761064 -0.0027573868 0.015278712 0.02677568
-0.028558005 -0.00045866816 -0.0100059165 -0.029351447 0.0058214236 -0.02876827 -0.0008146019 -0.056205772
-0.036599483 0.01767194 0.031164838 -0.039000336 0.038048744 0.03939232 0.008192747 0.04487662
0.049822625 0.0013570912 0.011152834 0.036470547 0.01656869 -0.027645662 0.017136997 -0.027799916
-0.001097342 0.0136305485 -0.010341279 -0.010996209 0.03210555 0.015763456 0.005537782 0.024880147
0.04095928 -0.023622105 -0.034599934 -0.0044579273 0.0025705453 -0.05794513 0.01545371 -0.006803399
-0.050804008 -0.06775122 0.011485606 -0.033880305 -0.004522562 0.037888277 -0.011112265 -0.03008935
0.028892063 -0.029701434 -0.042751227 0.012191255 -0.01939718 0.0077605858 0.02721319 0.004697556
-0.021787891 0.028491424 0.006188719 0.055083867 0.025296515 -0.04960413 0.030392794 -0.0052331705
0.0653005 -0.013354924 0.025673473 -0.0044757198 -0.035427503 0.080870815 0.024523322 -0.023759574
0.09983051 0.07069608 -0.019341353 0.0019841702 0.03959138 0.015463055 -0.021699322 -0.061540157
-0.031792376 0.037320256 0.01301019 0.002631127 -0.0010572706 -0.0037968066 -0.03055342 -0.029534012
-0.0069496753 -0.017944979 0.02788556 0.008841193 -0.049968734 -0.011747461 -0.023036055 -0.044850692
-0.02765097 -0.029264733 -0.017977145 0.014438722 -0.021631574 -0.05125304 -0.01840994 -0.023113444
0.06449857 0.0062249997 -0.008336853 0.03763273 0.021937085 -0.045469563 0.056984346 0.01969832
-0.012801716 0.02095868 -0.0018609841 -0.0023271213 -0.019932963 -0.00322293 -0.0014896423 -0.0034529003
0.022390751 -0.0014642063 -0.019508094 0.035891593 -0.029559948 -0.03184191 -0.025742324 0.03964518
0.017579358 -0.009796417 0.04726934 -0.0017810456 -0.022472326 -0.0009931409 -0.0946694 0.058122925
0.00025272416 -0.06268883 0.016317936 -0.0047124457 0.018915357 0.003541138 0.013623278 0.05119467
-0.015021982 0.034068093 0.033470266 -0.023212653 -0.008064492 0.047156237 -0.041969005 0.08634596
0.05655485 -0.017237274 0.02631784 0.052634045 0.03890332 -0.0022138504 -0.032588527 0.036055848
-0.007120312 -0.06649733 0.0046346616 0.044300463 -0.021178214 0.075694144 0.017741371 -0.019576937
-0.054971553 0.029055335 0.0057244054 0.007806386 0.022014555 0.00029330992 -0.023224726 0.004158278
0.013132372 -0.0012462753 -0.014676796 0.016624616 -0.0061176885 0.01979833 -0.012858388 -0.009587105
0.04970318 0.09315672 -0.02295396 -0.030904317 0.062817015 0.00546458 0.04967434 -0.017744573
-0.045156375 -0.000385319 0.015761763 -0.014221993 0.03349492 0.07365482 -0.019300375 0.004805055
0.04037068 -0.025488542 -0.006378033 -0.07569026 -0.061325014 -0.059320275 -0.06656271 -0.031900864
-0.06540062 -0.038892847 0.037418667 -0.00037686474 -0.06792099 -0.010168167 -0.05027927 0.012271117

decoder.layers.Conv2.bias f4 [64]
00000000: 0e2a 223c 12e9 81bc e57c c7bb 1988 a03c
00000010: 3353 c33c 8ed7 9cbc 622a eebc 629f 533b
00000020: b4e6 04bc 91c3 f43b 6a83 debc 58f6 ca39
00000030: 3021 fc3c b537 13bc cb5f 82bc 059e ed3c
00000040: 303d d0bc 7f9f d9bc e989 69bc a61e 153d
00000050: eb9d 2abc 4a7e a83a f4af f9bc 7bf4 963c
00000060: 5baa 7dbc 8f0e 0f3d 4bda af3c 5cd2 bc3b
00000070: 8d01 803c b41e 163d 0263 04bc 1a87 a2bc
00000080: 9b9d e23b 159e 083d 99bd 273c 9d9e f53c
00000090: 349e f8ba 39f8 813c c1b5 c63c 5d31 58bc
000000a0: da05 073c 7fb7 f43b d743 2bbc 8b88 123d
000000b0: 0810 3a3c 5802 303c 6ab0 b93c 4d70 253c
000000c0: 2730 84bc b685 043c 2a0a 2c3c 3019 83bb
000000d0: c712 75bc fb3f 583d 8c09 34bc 6d65 09bd
000000e0: d437 2bbc 4285 20bd d92c a4bc 0b0e 70bc
000000f0: 941f 023c a4f0 e93b 06a3 b73c 59e1 ed3c
0.009897722 -0.015858207 -0.0060878866 0.019596146 0.023843383 -0.019145753 -0.029072944 0.0032291044
-0.008111645 0.0074696024 -0.027162272 0.00038711983 0.030777544 -0.00898545 -0.015914818 0.029006014
-0.025419801 -0.026565311 -0.014254072 0.03640618 -0.010413627 0.001285502 -0.030479409 0.018427124
-0.01548251 0.034925994 0.021466395 0.0057623815 0.01562574 0.036650375 -0.008080246 -0.019839812
0.0069157607 0.033353884 0.010238075 0.02998286 -0.0018968047 0.015865432 0.024256589 -0.013195363
0.008241141 0.0074681635 -0.010453186 0.03577475 0.011356361 0.010742746 0.022667129 0.010097575
-0.016136242 0.00808852 0.01050047 -0.0040008053 -0.01495809 0.05279539 -0.010988604 -0.033543993
-0.010450322 -0.039189585 -0.020040916 -0.014651786 0.007942099 0.0071392823 0.022416603 0.029038118

decoder.layers.Conv3.weight f4 [32, 64, 3, 3]
00000000: 80a8 9b3c e502 3cbd fd36 263d ce82 6abb
00000010: 09f2 0d3c 106f febc d4f7 7f3c 6290 9abb
00000020: 9c30 20bc ee17 1cbd 9638 c2bc 7320 bebc
00000030: 3017 833c 68e0 3abd c9a4 0f3d 0f7b 3dbc
00000040: abb4 ffbc 51fe a63d d81a 36bb 431f 24bd
00000050: b065 53bb 051f 083d 151c d93c 89c5 39bc
00000060: 7a27 e33c 14fb 393e 2018 3b3d 5f78 75bc
00000070: eb33 023d eec0 e2bc 60a1 50bd d0aa 893c
00000080: c8a3 913c 23e1 59bd cb6b 7abd a2ab 3f3c
00000090: 04ec ee3c fbb6 5cbc 6f72 89bd e10f 503a
000000a0: 2bc0 58bc f8b0 9fbc 282c f7bc 0acc 1c3c
000000b0: b20d ccbc 249a 403d b5c5 063d 07e0 8d3d
000000c0: fb23 72bd ced3 633d 7879 253e b2b1 a4bc
000000d0: 60fb 54bd 4c55 c73c 5625 f7bc 07f9 abbc
000000e0: 6a0b 70bc 0c41 52bd 5be1 88bd e9b9 523c
000000f0: 75f3 96bc 136b cfbc f0d6 a3bc 1698 cdbc
00000100: 6276 cf3d 9131 3f3d 84ad 583d 3a12 b93d
00000110: d08f 973a 4d5f c33d b4b4 053e a8bf c83c
00000120: 3389 623d fc54 223c da71 92bd 1f08 3e3e
00000130: 60a4 153f 294a 873d 10d8 dfbc 0c88 163e
00000140: 5b8e 70bc 2ddb 7bbd 5422 a03c a8ae 433d
00000150: e503 82bc 8404 cc3b 8578 4bbd 5d66 dfbc
00000160: a844 093c ef27 07bc cd01 403c bc41 0b3d
00000170: a995 7fbd 455f 843d d34e 7e3e 01cc 903d
00000180: 76c3 90bd 57c7 8c3e 3528 023e b756 61bd
00000190: dfdc 20bc cb03 c739 105f 5abd c02c b43d
000001a0: 4365 e13a 8db3 d93b ff81 dd3d 29af c63c
000001b0: a7db 28bd c1a2 13bc 75a9 0dbd 7190 7e3c
000001c0: b662 7fbd c5dd 41bd fdbf 923c 35dd 08bd
000001d0: 1ed2 ddbc b4ea 22bc 4977 51bc 09b0 f83c
000001e0: e5f8 85bd 40ee 4c3c dd06 c43c a76d 18bd
000001f0: d617 68bc 7fc5 ae3d 69f9 163c 58af 25bd
00000200: 23ee 193d ea1e 49bd 35dc 983a 8897 babc
00000210: 6ddf 2fbd f4c0 22bd c644 373c dbca a63d
00000220: 705f 3c3c 6528 113d be42 5c3d ef18 ee3c
00000230: 1262 20bd 0b5d 64bd fbc9 0ebb 718c 083d
00000240: 499d f13a 8cf1 33bd ee06 25bd 5249 34bd
00000250: c882 bbbc 85d6 93bc 9c58 33bd 215c aa3c
00000260: 186c 47bd 257f 99bc 2544 79b8 27aa 15bc
00000270: c68f ad3d ed36 c53d 391b 61ba b678 2fbc
00000280: faba 123d cd47 ba3c b2a1 15bc c1d7 2d3d
00000290: 98ff 60bd 4383 2d3d bb7a 15bc 8be4 42bd
000002a0: 2c80 36be b62c 52bd bc60 8a3c a34f 1cbc
000002b0: a082 6ebc 0c98 c7bd 73c4 b13d 8172 60bd
000002c0: cad8 d83c 36c8 38bd 0766 19bb 0b9b 26bd
000002d0: eea4 023e 4242 6e3b 7f8d 9a3b 99a2 9b3d
000002e0: 5869 f43d f03f c93b 0b52 7bbc 10ec 043d
000002f0: c09b 203e 9a6d 0bbc 4c42 d93c a4fe dfbd
00000300: 7e10 2b3e b550 343e 4179 ee3d 65a0 183e
00000310: 0ddc e7bc 01aa ddbb 7a11 94bd 80a9 3cbd
00000320: 84ab e1bc 33c6 08bd 04fc 1dbd 97d0 91ba
00000330: 370f 4e3c b93d d93b 8d52 bc3c ce3c f13c
00000340: 1387 cc3c 5d49 a73c f87f b6bc 6fc5 363d
00000350: a3aa 8bba 221c 093c 0c60 943d eb34 f83a
00000360: 55c8 b83c ae1b 02bd 1c88 1e3a cab0 eabb
00000370: d88b 07bd a67e 32bc 3b87 49bd 9e0b 4fbd
00000380: 4999 82bb 503d 10bd 271b 16b9 65ff 82bc
00000390: 9910 61bd 4225 ccbc 9c81 4fbd 8863 d9bc
000003a0: edf0 8a3a b1e0 35bc 3a58 a0bc 5604 e5bd
000003b0: 620b 58bd e39c bc3d 2573 52be 4abf 533e
000003c0: d645 3bbe 85f9 f4bc fd29 c4bc 0cce 5abc
000003d0: 4ae4 b2bd 77c8 7fbd b301 1fbd 56ef f63d
000003e0: 9b3a 66bc 9fce 86bc 0666 a33d 4bf6 383c
000003f0: ce43 60bd 7edb 2fbd 8dca 353d 7d3c 363d
0.019001245 -0.045901198 0.040579785 -0.0035783532 0.008663663 -0.031058818 0.015623052 -0.004716919
-0.009777214 -0.03810876 -0.023708623 -0.023208832 0.016002268 -0.045624167 0.03506926 -0.011564984
-0.031214079 0.08153976 -0.0027786996 -0.040068876 -0.0032256655 0.033232708 0.026502648 -0.0113386
0.027728785 0.18162185 0.045677304 -0.014982312 0.031787794 -0.027679887 -0.05093515 0.016805083
0.017778292 -0.053193223 -0.061137956 0.011698635 0.029165275 -0.01347136 -0.067112796 0.00079369365
-0.01322941 -0.019493565 -0.030172423 0.009570131 -0.024908874 0.047022 0.032903392 0.069274954
-0.059116345 0.055621915 0.16159618 -0.020104263 -0.051997542 0.024332665 -0.03016917 -0.020992769
-0.014651159 -0.051331565 -0.06683608 0.012861707 -0.018426636 -0.025319612 -0.019999951 -0.025096934
0.101300016 0.04667813 0.052899852 0.090366796 0.0011563245 0.095396616 0.13057214 0.024505451
0.055306625 0.009907957 -0.07150622 0.18557785 0.5845394 0.06605942 -0.027324706 0.14700335
-0.014682378 -0.06148832 0.019547619 0.047773987 -0.015870998 0.0062261242 -0.049675483 -0.02727049
0.008378185 -0.008249267 0.011719179 0.033998236 -0.062398586 0.06463484 0.24834757 0.07070161
-0.07068531 0.27495834 0.1271065 -0.05501434 -0.009818285 0.00037959064 -0.053313315 0.08797598
0.0017196316 0.0066437186 0.108158104 0.024253445 -0.0412251 -0.0090109715 -0.034585435 0.015537367
-0.062349997 -0.047330637 0.017913813 -0.033414084 -0.02707773 -0.009943653 -0.012784787 0.030357378
-0.065416135 0.012507975 0.023929054 -0.037213948 -0.014165839 0.08533763 0.009214737 -0.040450424
0.03758062 -0.049101748 0.0011662306 -0.022777334 -0.042937685 -0.039734796 0.01118583 0.0814416
0.011497363 0.035438914 0.053774588 0.029064624 -0.039156027 -0.055752795 -0.002178787 0.03333706
0.0018433715 -0.04393153 -0.04028981 -0.044015236 -0.02288951 -0.018046627 -0.043785676 0.020795884
-0.04868707 -0.018737385 -5.942969e-05 -0.009134806 0.08474688 0.09629617 -0.00085871253 -0.010709932
0.035822846 0.022739315 -0.009132789 0.042442087 -0.054931253 0.04236151 -0.0091234995 -0.047581237
-0.17822331 -0.05131217 0.01689183 -0.009540471 -0.014557511 -0.097457975 0.08680048 -0.0547967
0.02647056 -0.04511281 -0.002340676 -0.040675204 0.12758228 0.003635541 0.0047165747 0.075993724
0.11934155 0.006141655 -0.015339385 0.03245169 0.15684414 -0.008510018 0.02652087 -0.10937241
0.1670551 0.17608912 0.11644221 0.14904936 -0.02830317 -0.006764651 -0.07229896 -0.046060085
-0.027547605 -0.033392143 -0.03857042 -0.0011124787 0.01257687 0.0066296724 0.022988582 0.02944794
0.024966752 0.020420725 -0.022277817 0.04462188 -0.0010655712 0.008368524 0.07244882 0.0018936669
0.022556463 -0.03176468 0.00060475036 -0.007162188 -0.03309235 -0.010894453 -0.04920123 -0.05054819
-0.003985558 -0.035214722 -0.0001431523 -0.015990922 -0.05494747 -0.02492011 -0.050660715 -0.026536718
0.0010600366 -0.011100934 -0.01957332 -0.11182468 -0.05274523 0.09209611 -0.20551737 0.2067844
-0.18288359 -0.029904136 -0.023945803 -0.0133547895 -0.08734949 -0.062447038 -0.03881998 0.120573685
-0.014052059 -0.016455946 0.07978444 0.01128919 -0.054752164 -0.042933933 0.04438262 0.04449128

decoder.layers.Conv3.bias f4 [32]
00000000: e915 b33a 6062 0cbd 76bf 19bb 987f c7bc
00000010: 708f d53b 7873 b03b e36f 80ba 3615 acbc
00000020: 398b 1ebc 06a3 fcb6 c161 333b 26bb 7dbc
00000030: 6b6e a5ba 9c54 4b3b cd7c 4abb ee38 96bb
00000040: bc9e a23b 469e d7ba c8db 903c 02aa 3dbd
00000050: f522 713b 984c f13c adaa 303b b10e e23c
00000060: db99 553c 1b62 7cbc e8e9 3a3b 22d9 98bb
00000070: c95c 2e3c 4688 ae3c eeda 473b d6de 423b
0.0013663146 -0.034273505 -0.0023460067 -0.024352834 0.006517343 0.0053848587 -0.000979897 -0.021006208
-0.009676748 -7.5291637e-06 0.0027371498 -0.015486514 -0.0012621408 0.0031025773 -0.003089714 -0.0045844233
0.0049627703 -0.0016450367 0.017682925 -0.04630471 0.0036794518 0.029455468 0.00269572 0.027594896
0.01303717 -0.01540425 0.0028520767 -0.004664556 0.010642239 0.021305215 0.0030495482 0.0029734871

decoder.layers.Conv4.weight f4 [16, 32, 3, 3]
00000000: 6581 d13d 58b9 91ba dff6 19bd 2f2a 893c
00000010: 654f b0bd af65 42ba b69f ca3c b0a8 063e
00000020: cfc9 6cbd 48b2 303c 364b e33b 7533 82bc
00000030: 6490 5fbd bf24 103d fc11 c23c 2c76 2dba
00000040: 3c12 cabc 28e1 ce3c b5fc 78bc 9228 a53b
00000050: 1952 323a 51ef 273b 4b6a a2bc f3c6 29bd
00000060: 01fd 4bbd b605 083d a325 3c3b c38d e93c
00000070: 4598 b93c c599 293d c0f5 47bd e5f1 943d
00000080: 55e2 9f3c 0af1 0abd 9d30 b4b9 0743 643b
00000090: a5be df3c d92a 793d 60c3 1ebd 0efc c43d
000000a0: d2d0 c0bc a196 32bd bc2b c2bc 3b6f 37b9
000000b0: e9d7 5b39 a85f 423d 73ee 083d f3d5 88bc
000000c0: b7f8 e6bc e1b7 623b ffdd a4bc f77d 8b3b
000000d0: baee a73c 1618 1e3d bbf5 a7bc 910a 833d
000000e0: e56f 9939 5326 a13b 9a3a 963b ee8d 9dbb
000000f0: 1fad 0c3d d8c7 51bd b5b0 12bd bc0c 85bc
00000100: d943 b1bc 02a1 db3c 58f5 933c 13bf efbc
00000110: c1d7 813c 452c ae3c f2b4 a13d c9cd 2b3d
00000120: ab26 b33d b58c 39bc 0c8a 23be 4764 053e
00000130: f595 f2bc eb42 d73b be95 87bd b356 ab3d
00000140: 99bc 1f3d 995c 37bd 0de4 1d3d 043d f93c
00000150: 1db6 963d b706 d33c 3170 0abd d5b0 93bd
00000160: dacb 6c3d b41b 223d f623 28bd 7749 f23b
00000170: 664b 853c 6fcf a7bb 2185 5dbd f195 1a3d
00000180: 63e3 353d db32 5b3d 6258 b0bc 891e 18bb
00000190: ad8e d0bc 21fa a8bc 134f 60bd 4f67 123d
000001a0: 86cb 74bd b6a5 36bd acb4 2bbd 0cfd b3bb
000001b0: 2dec 8f3d d823 493d 997a babb 0508 a23d
000001c0: 5638 8a3d 5882 2a3a 0802 823c d4f2 a53d
000001d0: 6011 af3c 58dd b43d d688 b93c d3d8 5f3d
000001e0: ee47 a3bd 2e49 453d 1998 b1bc b611 593d
000001f0: 0b5b 9cbd 9c48 8d3e 0f5d 9a3b dc72 c4bc
00000200: 53c7 01bd 6d22 5c3c 368e 63bd 123f dabc
00000210: e0c0 323d 9f56 bf3c dd3c 7d3d 9a67 fa3c
00000220: a1b3 5d3c 211e 78bd e624 f9bd 79b2 b23d
00000230: 86d9 c7bd 62e2 adbb ea2a c13d a37e ab3d
00000240: f279 363d fe32 6bbc 6f6c 32bc a5c1 4a3d
00000250: adcc 503b 6cb1 4dbc 68e3 08bd e26f ba3c
00000260: 9f3e 3f3d b6e0 70bd 466c e4bc 7d24 95bd
00000270: 788d d73d 7173 e1bb a857 d53d c7fb 9fbc
00000280: cdd8 bdbc eab3 033d 00bc 653d eb6b 0abd
00000290: 841b 473c 1202 fbbc 864b b23c 6dab 71bd
000002a0: a1e7 9e39 f3b1 18bd eb74 b13c 4cae 053e
000002b0: c704 333e 7c92 be3c 1261 8c3e ac6b 803d
000002c0: 9898 633d 12d4 313a 2f40 663d cc37 a6bc
000002d0: cc65 7c3d c685 de3c f604 90bc f9fb 333d
000002e0: 86d7 03bd 172a a13c c8f7 9e3c d2ae 863d
000002f0: e546 a7bd 8610 8abd 6210 a43c 9a9f 373e
00000300: e9cb f4bd 727b a93d 0eb8 5ebd 96b3 d03d
00000310: a34e 43bd a5be fd3c 047b 45bd ea57 95bc
00000320: a818 e9b8 106e 293d a66e d8bd 1b7f 363d
00000330: b8ef f73c 876d f9bc 7184 c23c 02bb 5a3d
00000340: 29a3 523d ccda 29bd bf8e dd3c cc5e 123c
00000350: 37fe bbbc 78b0 a4bb ecd1 eebb 5497 29bb
00000360: f70b 1f3e 3315 8cbd 8844 e0bc 12c9 c4bc
00000370: 04ba 8e3d bfb6 5bbd 5c5d 08bd 9eb2 403c
00000380: aafe a4bc aac9 4abb 0d0a 5c3d b129 193d
00000390: 6ad2 923a 8b78 f63d b03f b43d c973 26bd
000003a0: 8f9b 8cbc 56b7 103d 4abf 613c edde 573b
000003b0: 8e89 78bc fb12 eebd bcfd c03b f2da f23d
000003c0: 6bb9 7d3d 60bc 843e 33e6 253e 96e2 26bd
000003d0: 7ebf 09bd a0d5 ccbc 4d48 d4bc 30e5 97bc
000003e0: eac5 7d3c 8f24 d9bc 7260 d5bc d5e5 43bc
000003f0: bbe8 223d 88b3 85bc 89fc d8bd 3b48 88be
0.10229758 -0.0011117859 -0.03758895 0.016743748 -0.08608893 -0.0007415665 0.02473436 0.13150287
-0.057809647 0.010784693 0.006936456 -0.015893677 -0.05458106 0.035191294 0.023690216 -0.0006617035
-0.024666898 0.025253847 -0.015196969 0.0050402367 0.00068023946 0.0025624821 -0.019826075 -0.0414495
-0.04980183 0.03320857 0.0028708957 0.02850998 0.022655616 0.04140641 -0.04881835 0.072727
0.019517103 -0.03392128 -0.00034368495 0.003482999 0.027312586 0.06083188 -0.038760543 0.09618388
-0.023537073 -0.043600682 -0.023702495 -0.00017493677 0.000209659 0.047454506 0.033430528 -0.016703581
-0.028194768 0.0034594464 -0.020125387 0.0042569595 0.020499576 0.03859719 -0.020502916 0.063985
0.00029265802 0.0049178987 0.0045846226 -0.004808179 0.03434479 -0.051215976 -0.035813052 -0.016241424
-0.021638798 0.026810173 0.018061325 -0.029265916 0.01584995 0.021261344 0.07895841 0.0419443
0.0874761 -0.011325051 -0.1597063 0.13026534 -0.02961252 0.0065692565 -0.06620358 0.08366146
0.03899822 -0.044766042 0.038547564 0.030424602 0.07358954 0.025760038 -0.0337984 -0.072114624
0.057811595 0.0395772 -0.04104992 0.0073940116 0.016271304 -0.0051211636 -0.05408204 0.03774065
0.044406306 0.053515296 -0.02152652 -0.002321156 -0.025458658 -0.020627083 -0.05476291 0.035743054
-0.059764408 -0.044591628 -0.04192035 -0.005492812 0.07027469 0.04910645 -0.0056908843 0.07911686
0.067490265 0.0006504408 0.01587011 0.081029564 0.02137059 0.088312805 0.022648256 0.05465014
-0.07972704 0.048165493 -0.021678971 0.052995406 -0.076345526 0.2759446 0.0047108005 -0.02398055
-0.03168423 0.013435942 -0.055555545 -0.026641402 0.04364097 0.023356734 0.061825622 0.03056698
0.013531596 -0.06057561 -0.12165241 0.08725447 -0.09758286 -0.005306528 0.09432013 0.083737634
0.04454989 -0.014355419 -0.01089011 0.04950108 0.0031860278 -0.012554508 -0.033419997 0.022758428
0.04669058 -0.05880805 -0.02788366 -0.0728235 0.1052503 -0.0068802168 0.1041711 -0.019529236
-0.023174668 0.032154 0.056087494 -0.033794325 0.012152556 -0.030640636 0.021764528 -0.059001375
0.00030308685 -0.03727908 0.021662196 0.1305477 0.17482291 0.023263209 0.2741781 0.06270537
0.055565447 0.0006783615 0.056213554 -0.020290278 0.06162052 0.027163398 -0.01758049 0.04394147
-0.03218796 0.01967339 0.01940526 0.06576313 -0.08167819 -0.06741433 0.020027343 0.17931977
-0.11952955 0.082754984 -0.054374747 0.10190503 -0.047682416 0.030974695 -0.04821302 -0.018230397
-0.000111148984 0.04136473 -0.105679795 0.04455481 0.030265674 -0.030447735 0.023744794 0.053401
0.051425133 -0.041468427 0.027045606 0.008933734 -0.022948368 -0.0050259195 -0.007288208 -0.0025877552
0.15531908 -0.06839981 -0.027376428 -0.024021659 0.069690734 -0.053641077 -0.03329216 0.011761336
-0.020140965 -0.0030942955 0.053720523 0.037393276 0.0011201624 0.120347105 0.0880121 -0.040637765
-0.01716402 0.035331093 0.013778517 0.003293927 -0.015169514 -0.11624714 0.0058896225 0.11858167
0.061944406 0.2592497 0.16201095 -0.040743433 -0.033629887 -0.025004208 -0.025913382 -0.018541902
0.015489081 -0.02650669 -0.026046965 -0.011956652 0.03977273 -0.016320959 -0.10595042 -0.26617607

decoder.layers.Conv4.bias f4 [16]
00000000: c0e1 2c3b 20e4 413a 97de 5f3c da57 113c
00000010: 99b4 fb3a 13e8 19bd 98e9 823c e43b 06bc
00000020: 8bcc d6bb a97e 89bd b410 1d3c cdb2 c53c
00000030: 4a8b e0ba 465f 403c 6fe6 0dbc 5467 76b9
0.0026379675 0.0007396359 0.013663909 0.008871043 0.0019203603 -0.03757484 0.015980527 -0.00819299
-0.006555145 -0.06713612 0.009586502 0.02413311 -0.0017131355 0.011741465 -0.008660897 -0.00023498881

decoder.layers.Conv5.weight f4 [1, 16, 3, 3]
00000000: ae4f 153d ae1d 183d d62a 24bd 29f6 0f3d
00000010: 976b 61bd 5ec0 883d 9e81 7dbd 096c 853c
00000020: 372a 02bd b5e3 f1bc 3b7d 2dbd 764c 4a3d
00000030: 3285 8cbd d130 1a3d 8a60 53bc 79b2 7fbd
00000040: 2503 6a3d 390d 9b3d 5825 6a3c 77ef 66bc
00000050: b935 b23c 6da7 3e3b 5d8a ecbc 14b3 dabc
00000060: 9ffb 133c 6b2b ba3c 8613 98bc e8ba 86ba
00000070: 5dc7 0c3d f6fe 51bd 2e45 4b3d a375 363d
00000080: 40f4 8c3d 201c 39bc ec50 883d 3444 b7bc
00000090: 6c5a d0bc 0727 613d d65e b7bc d77f eabc
000000a0: a951 9dbc 30c6 083d 1815 143d 24e7 9cbc
000000b0: 040b 063c 6f5a 5fba 2723 85bd 32dc b0bc
000000c0: b681 e6bc 8c54 1dbd 9a33 893d c109 47bd
000000d0: 04ca 663c 4b3e 9abd 90b8 a73b 9fc1 353d
000000e0: 2114 093b a8e9 85bc 3712 09be fd74 b3bc
000000f0: 2bb5 9cbc 0f55 a63d c4a6 903c b7ff 6fbd
00000100: 6866 6f3c c684 63bd b44e ac3d 49f6 a3bc
00000110: a37b 063c 63dd 4d3d 1d1a bb3c 1384 38bd
00000120: 91be dfbb 6535 60bb 8689 d33c 3530 d63d
00000130: 3967 243d 1dac b4bd 3e4e d43c ea59 b7bd
00000140: c57d 08bc 773a 94bd 7875 32bd 42fd 943d
00000150: dca5 48bd 30da 24bd 05e0 e43b 99b3 14bd
00000160: c0e3 4d3c 4e30 99bd ce0b d0bd f88d a63d
00000170: 553c a9bc 8aee a63c 410e 643d 70a5 a83b
00000180: 5cac 6f3d 168f 51bb 509c b9bd 0292 a3bd
00000190: 1cb2 25bd e2c3 a33c e53f 623d a86a af3d
000001a0: 7830 8c3c 7825 2c3c 764f 883d c192 6b3c
000001b0: 3a87 9fbd f55e 96bc 3355 493c 9e8e a8bd
000001c0: 5f33 333d 1a57 9e3d 2096 9a3d 7875 053d
000001d0: 704d 7ebd f2a4 75bc 734e 843c 6d52 893b
000001e0: 33a7 b33d 3387 04be cf2f aa3c d2bb 83bd
000001f0: ebd7 113e adab aabd 6b35 a3bc 5e2c f73c
00000200: 4059 2c3d fb1c ecbd 6a99 903d 755d c3bb
00000210: edac bbbd 7af4 9a3d 249e 6d3c 710e 51bd
00000220: 0c6f 11bc cc30 853d dde2 903d b626 413d
00000230: 7ddf 6e3c 270f 8dbc e7bf 3dbd eec9 99bd
0.03645294 0.03713768 -0.040079914 0.035146866 -0.055034246 0.06677316 -0.06189119 0.016286867
-0.03177854 -0.029527524 -0.042355757 0.049389325 -0.068613425 0.03764421 -0.012901435 -0.062426064
0.057131905 0.075708814 0.01429113 -0.014095179 0.021754133 0.0029091493 -0.02887457 -0.02669672
0.009032159 0.022725781 -0.018563997 -0.0010279091 0.034369815 -0.05126854 0.04962652 0.04454578
0.068825245 -0.011298209 0.066560596 -0.022371389 -0.025433742 0.05496886 -0.022384088 -0.028625412
-0.019203978 0.03339213 0.03615293 -0.019153185 0.008181337 -0.00085202506 -0.065008454 -0.021589372
-0.028138023 -0.03841071 0.06699295 -0.048593286 0.01408625 -0.07531413 0.005118437 0.044374105
0.0020916539 -0.016346768 -0.13385855 -0.02190637 -0.019129356 0.081216924 0.017657645 -0.058593478
0.014611818 -0.055546544 0.08413449 -0.020014899 0.008208188 0.05025996 0.0228396 -0.04504783
-0.006828137 -0.0034211513 0.025822412 0.104584135 0.040137503 -0.088218905 0.025916215 -0.089526966
-0.008330767 -0.07237714 -0.04356906 0.072748676 -0.0489863 -0.040247142 0.006984713 -0.03630409
0.012566507 -0.074799165 -0.101585016 0.08132547 -0.020658651 0.020377416 0.055677656 0.005146675
0.058513984 -0.0031976155 -0.09063017 -0.07986833 -0.04045306 0.019990865 0.055236716 0.08565265
0.017112955 0.01050698 0.06655781 0.014378251 -0.07789464 -0.018355826 0.0122883795 -0.08230327
0.043750163 0.07731457 0.07548165 0.03258273 -0.06208557 -0.014992939 0.016150689 0.004190734
0.08772125 -0.129422 0.02077475 -0.06432308 0.14242522 -0.08333526 -0.019922933 0.030172523
0.042077303 -0.11528965 0.070605114 -0.0059620687 -0.09163842 0.075661615 0.014503036 -0.051039163
-0.008876573 0.06503448 0.07074521 0.04715606 0.014579651 -0.01721914 -0.04632559 -0.07509218
